model.tflite (tflite, 361028 bytes, 6 tensors)

arith.constant f4 [3, 64]
000000 cd 04 a7 be 28 a4 88 3e 15 c8 5f 3d cf fc 2f 3d
       -0.3262085 0.2668774 0.054634172 0.042965706
000010 67 d3 7e be da d8 45 be da 11 cb 3d fd c6 ef 3d
       -0.24885331 -0.19321004 0.09915514 0.11707876
000020 dc ab ba 3c 20 33 08 be f7 16 97 3e 79 cb 3c be
       0.022787027 -0.13300753 0.29509708 -0.18436994
000030 04 06 68 bd 6c bf b7 bd 4b 66 a4 3e 09 ee 28 bd
       -0.056646362 -0.08972058 0.32109293 -0.041242633
000040 df c7 56 be 70 c0 8b bd 33 5b b9 3e 37 7c 5c be
       -0.20974682 -0.06823814 0.36202392 -0.21531759
000050 d1 9b 79 3e 30 3c 80 bd 1a 34 0a 3d 23 d0 3a be
       0.24375845 -0.0626148 0.033741094 -0.1824346
000060 7b d9 71 be 50 38 d6 bd e5 00 74 3e 77 57 00 be
       -0.23618118 -0.104599595 0.23828466 -0.12533365
000070 00 21 2a be ea 6b a3 3e b8 a4 0a 3e 66 ff 8e be
       -0.16614151 0.3191827 0.13539398 -0.2792923
000080 0a 38 6e 3e ad 50 89 3e 6a 40 72 be 85 17 a7 3e
       0.23263565 0.26819363 -0.23657385 0.3263513
000090 3c 94 96 bd 0c 62 af 3d 09 79 1f bc 02 b5 e7 bd
       -0.07352492 0.08563623 -0.009733447 -0.113138214
0000a0 9b 45 72 be 2e 11 8e be 92 15 b2 3b 80 d2 0f be
       -0.23659365 -0.27747482 0.0054347003 -0.14045143
0000b0 52 08 a5 3e 5b 04 84 be 3b 3f 97 3e 67 04 0c be
       0.3223291 -0.25784573 0.2954043 -0.13673554
0000c0 d0 34 48 be 74 29 1a be 45 9e 67 3e 9e 0f 05 be
       -0.19551396 -0.15054876 0.22618969 -0.12994239
0000d0 3a c2 6c be 6b eb 11 be 8b eb a0 3c 73 cf 9f 3e
       -0.23120967 -0.14249961 0.019643566 0.3121296
0000e0 7f 7c 95 be 7f f4 9a 3e 6f d1 ba bd 21 87 58 3d
       -0.29196545 0.3026466 -0.091219775 0.052863244
0000f0 9c e5 59 3e bd a8 65 be e3 9c 86 3e ec 7b 89 be
       0.21278995 -0.2242765 0.2629157 -0.26852357
000100 02 d0 a2 bd 13 a4 fe bd 91 c1 c2 be 98 a6 02 3e
       -0.079498306 -0.124336384 -0.38038304 0.12758863
000110 2a be ac 3e a9 18 ab 3e ce f5 27 be ad d7 8f 3e
       0.33738834 0.33417252 -0.16402361 0.28094235
000120 10 33 ea bd 4f 8f 7a bd dd 62 2a be 9e 6b 2e be
       -0.11435521 -0.061171826 -0.16639276 -0.1703324
000130 0b 4c bc be 6d 4c 8e 3e 80 d0 a0 3d 2c ef 79 be
       -0.36776766 0.27792683 0.07852268 -0.24407643
000140 68 62 fd bd 83 44 0c 3e bd 2d b5 be b4 9c b3 3e
       -0.12372285 0.1369801 -0.35386458 0.35080492
000150 4d ed dc bd 10 19 ae 3e 4b 89 e5 3a 37 dd b2 3e
       -0.10787449 0.34003496 0.001751223 0.349344
000160 e9 18 99 3e 93 65 99 3e c5 a5 ad be 3b c5 a9 3e
       0.29901817 0.29960307 -0.33915535 0.33158287
000170 b7 c6 3a 3e ec 49 02 be c4 8b 97 bd 23 4d 89 3e
       0.18239866 -0.12723511 -0.07399705 0.26816663
000180 c4 3f c0 be bf a7 d1 bd 52 3a b7 3d 15 a9 93 bd
       -0.3754865 -0.10237073 0.089466706 -0.07209984
000190 9b ab 3f 3e 77 3c 72 3e 49 4c 9f 3e 57 e6 bf bd
       0.18717806 0.23655878 0.31112888 -0.09370106
0001a0 13 d9 44 be 0a 8a 22 3e ea 59 ad 3e c4 86 1d 3e
       -0.19223432 0.1587297 0.3385766 0.1538344
0001b0 7d 97 e8 bd e3 ed 47 3d 63 df 16 3d c4 7c 56 bd
       -0.11357019 0.04881085 0.036834132 -0.05236508
0001c0 a0 74 08 3e 21 76 99 3e 57 f6 a8 3e ef 5c 82 be
       0.13325739 0.29972938 0.33000442 -0.25461528
0001d0 71 11 c4 bd 5f a7 c2 bc 90 d5 b0 be 7c ea 87 bd
       -0.09573639 -0.02376145 -0.34537935 -0.06636521
0001e0 65 73 7f 3e d9 de 8a be 00 bd 62 be 2a 11 94 3d
       0.24946363 -0.27123144 -0.2214241 0.07229836
0001f0 f4 9f 58 be 13 18 39 3e 8e 7a a0 be 52 58 9e bd
       -0.21154767 0.1807559 -0.31343502 -0.077316895
000200 5b 85 b4 be 9b 15 a5 be a6 ae c3 bd 9d 9c bc be
       -0.35257992 -0.32243046 -0.09554796 -0.36838236
000210 9b df 0d be 72 aa 94 be e4 60 72 be 9d c4 b2 be
       -0.1385483 -0.2903629 -0.23669773 -0.3491563
000220 7b 6a 07 3e 8f a9 50 be 42 ab 80 bd 7a 2f ad be
       0.13224213 -0.20377181 -0.06282665 -0.33825284
000230 04 4a 17 be 13 c9 c2 bd 7f 76 6e be a3 6d 43 be
       -0.14774328 -0.09511008 -0.2328739 -0.19084792
000240 31 fb 50 3e 90 dd 8f 3d 97 c0 07 3e 5d a9 7c 3e
       0.20408322 0.070246816 0.13257061 0.24673982
000250 6e 60 6a be 9f 8b 9b 3e 8d e1 a1 3d 36 79 b6 be
       -0.22888348 0.3037996 0.079043485 -0.35639352
000260 4b 07 8d be c7 7b af be 20 15 9f 3d 62 de 40 3e
       -0.27544627 -0.34274122 0.07767701 0.18834832
000270 de 6b 8f be e2 e8 96 3d 9a 78 36 3e 7e 0b 55 3e
       -0.28011984 0.073686376 0.17819443 0.20805165
000280 7a 06 46 3e 4a 13 9d be 6e 93 25 3d 17 8c 2f be
       0.19338408 -0.3067878 0.040423803 -0.17143284
000290 23 49 27 be e4 4e 1f bc 56 e8 e3 3d ab 45 89 be
       -0.16336493 -0.009723399 0.11128299 -0.26810965
0002a0 61 58 3a 3e b8 cd 7e be 0c ce e6 bd 89 be 14 3c
       0.18197776 -0.24883163 -0.11269769 0.00907863
0002b0 ee c1 06 3e 22 c3 96 be 0d 01 f7 3d bd d7 d1 3b
       0.13159916 -0.2944575 0.12060747 0.006403892
0002c0 d2 99 7b be 54 59 87 be 09 ea 34 3e 17 1c 90 be
       -0.24570397 -0.2643534 0.17667402 -0.2814643
0002d0 cf 99 9a be 9c 5b e8 3d bf da 2b be bd 89 1c 3e
       -0.30195472 0.11345598 -0.16782664 0.15286918
0002e0 78 53 81 3d 2e 20 4d 3e de 09 80 bd 68 a3 75 3d
       0.063147485 0.20031807 -0.06251882 0.05997029
0002f0 13 f9 84 bc df 4c 8e 3e 1c 59 d4 3d 4a a2 15 3e
       -0.01623205 0.27793023 0.10368559 0.1461269

arith.constant1 f4 [64, 128]
000000 08 43 65 bd 25 b4 ef 3d 5c a9 c9 3d 39 3e 20 3c
       -0.05597213 0.11704282 0.09846756 0.00978046
000010 10 4f 60 bd f1 8d 62 be 63 26 5f be 07 ac 0a 3e
       -0.0547629 -0.22124459 -0.21791987 0.13542186
000020 c6 a9 a1 3c 5c 10 9c 3d 2e 5f 2d 3e ed 5e 06 be
       0.019734275 0.07620308 0.1693084 -0.13122149
000030 54 33 04 bb af 42 30 be 90 cb e1 3d 0b 59 e2 3d
       -0.0020172196 -0.17212938 0.110251546 0.1105214
000040 79 da 67 bc 4e 02 6c 3e 83 8f 26 3e 37 c6 74 3d
       -0.014151209 0.23047754 0.16265683 0.059759345
000050 4f fc aa 3c 62 62 70 3d 2b 93 fe 3d 4f e6 8a 3c
       0.020872263 0.058687575 0.12430414 0.016955523
000060 f4 22 10 3d 10 12 99 bd e4 5f 26 be 06 cd 7c 3d
       0.035189584 -0.07474148 -0.16247517 0.061718963
000070 ce 35 66 3c a9 f9 71 3e dc 8b cc bd 61 80 c9 3d
       0.014050914 0.23630394 -0.099876136 0.098389395
000080 66 6a df bd 95 5a 2a be 1b 2f 62 3e ea 36 b3 3d
       -0.10908966 -0.16636117 0.22088282 0.087507084
000090 2d bf c7 bd 05 f3 06 3e c0 af 2d be 5e e4 25 3e
       -0.09753261 0.13178642 -0.16961575 0.16200396
0000a0 46 9c e9 3d 19 3e dc 3d 26 50 42 bd 5d 47 02 3e
       0.1140676 0.10754032 -0.047439717 0.12722535
0000b0 1f 32 86 bd 96 56 9e 3d 23 9c 5b 3c a2 85 45 bc
       -0.065525286 0.07731359 0.013403925 -0.012055786
0000c0 3e 80 28 bd 38 eb 5f 3d f4 03 c2 bd 91 ae 1c 3e
       -0.041137926 0.05466768 -0.0947341 0.15300967
0000d0 0f b2 8b bd d5 94 5e be 32 e9 65 bd 42 ff 90 3c
       -0.06821071 -0.21736462 -0.056130596 0.017699841
0000e0 40 77 47 3e d1 c5 e6 bd 6e 70 cd bd 8c 35 af ba
       0.19479084 -0.11268199 -0.1003121 -0.0013367399
0000f0 a3 c1 9f 3d da 84 6e bd 9b 49 ab 3c 8b f5 a2 3c
       0.07800605 -0.058232166 0.020909121 0.019892475
000100 bc f9 9a 3d 43 ec 5b 3d 21 06 2f 3d 27 64 00 3e
       0.07567164 0.053692114 0.042730454 0.12538205
000110 c2 16 10 be e0 f5 65 be a4 84 09 3e 73 b0 32 3d
       -0.14071181 -0.22457075 0.13429505 0.043625306
000120 3e bd b3 bc f2 60 21 be ff c5 14 3e 61 a1 65 bd
       -0.021940824 -0.15759638 0.14528655 -0.056062106
000130 88 e5 ed bc e8 3f ef bd 00 e8 66 3e 85 c4 9a bd
       -0.029040113 -0.11682111 0.22549438 -0.075570144
000140 63 24 81 bd aa 25 d0 bd 21 b8 28 be 16 dd bc bd
       -0.06305768 -0.10163434 -0.1647649 -0.09221856
000150 32 94 22 bd 50 f8 5a 3d 71 85 aa 3d 35 ad 1e 3e
       -0.03969211 0.053459466 0.08326233 0.1549576
000160 5d 00 2a bc 90 a7 5a 3d b1 03 5f 3e 54 41 85 bd
       -0.010376063 0.053382456 0.21778752 -0.06506601
000170 07 e5 77 3e 8d 7d 63 bc 32 24 8f 3d 5f f1 24 be
       0.24208461 -0.013884914 0.069893256 -0.16107701
000180 1f 1f 1f be 0a 7c 26 3d 36 60 72 bd 00 de 30 3e
       -0.15539216 0.040645637 -0.059173785 0.17272186
000190 de bb a8 bd 70 38 1c bd 96 7b a7 3d d5 16 02 3d
       -0.08238958 -0.03813976 0.08177869 0.031760056
0001a0 d1 2c 4e be f6 1b 8e 3d e7 af 18 bd 14 da 0b bb
       -0.20134284 0.06938927 -0.03727713 -0.0021339701
0001b0 38 fc d9 3d b5 aa 29 bd 52 18 10 3e 35 27 f6 bc
       0.1064381 -0.041422565 0.14071777 -0.030047992
0001c0 68 93 11 3e a8 f3 20 3e e8 a1 e3 bd 04 ca b4 3d
       0.14216387 0.15717947 -0.111148655 0.08827594
0001d0 e3 28 65 3e d8 ca 9c 3d f5 7f 29 3e 96 89 56 bd
       0.22378878 0.07655877 0.16552718 -0.052377306
0001e0 14 63 49 3d cd a9 c3 3d e2 28 4d be 5e d8 d0 3d
       0.049166754 0.09553871 -0.20035127 0.10197519
0001f0 a7 29 2c be 5d 2a b9 bc 22 2d d5 3d ea 4e 16 3e
       -0.16812764 -0.022603208 0.10408999 0.14678541
000200 43 fc 2b 3e c2 08 89 bd af 92 ef 3d 39 60 bd 3d
       0.16795449 -0.066911235 0.116978996 0.09246869
000210 08 54 2a 3d 1b 17 e4 bd c1 3a 58 bc 5a e0 9e 3d
       0.041584045 -0.111372195 -0.013197602 0.077576354
000220 61 77 3d 3d 3e 78 da bd da 7e 49 3e 76 16 20 3d
       0.046256427 -0.106674656 0.19677296 0.03908392
000230 8d 3a 9c 3d ee 4c 52 bd 46 ea 48 3d 13 14 40 bd
       0.07628355 -0.051342897 0.049051546 -0.046894144
000240 4a f2 de bd b7 59 29 bd e2 d5 55 3d 89 61 d5 bc
       -0.10886057 -0.041345324 0.052205928 -0.026047485
000250 f9 43 3f 3e 1d 09 27 3e 3d a4 15 be c4 f9 11 be
       0.18678273 0.1631207 -0.14613433 -0.14255434
000260 ab 22 96 3d 03 a7 00 3d 2e b5 67 bd 85 92 86 3d
       0.07330831 0.031409275 -0.05656927 0.06570915
000270 23 3f 4d 3e 70 e2 e8 bd 85 0c 97 bd 11 46 ef 3d
       0.20043616 -0.113713145 -0.07375435 0.11683286
000280 de 33 fe bd 8e fa 39 3e 13 34 93 bd a1 09 bb 3d
       -0.12412237 0.18161985 -0.07187667 0.09132696
000290 99 9f 96 bd 98 35 c0 3d 8c 6e d4 bd 9b b9 f9 3d
       -0.073546596 0.09385222 -0.10372648 0.121936046
0002a0 6c 06 27 3e c8 c8 38 3e d5 77 5c 3e c9 88 b5 3d
       0.16311044 0.18045342 0.21530087 0.0886398
0002b0 71 17 07 be 11 f3 e8 3d 92 88 9f bd 0e 16 20 bd
       -0.13192536 0.11374486 -0.077897206 -0.039083533
0002c0 47 33 15 3d fc 9a 23 3e 3d 7e d1 3d d1 73 0c bd
       0.036425855 0.1597709 0.10229156 -0.03429014
0002d0 f7 c3 f2 3d df 01 c4 3d 29 59 93 bc 87 95 8a bc
       0.118537836 0.095706694 -0.01798685 -0.016917003
0002e0 98 8b 91 3d 06 2b 23 3d 04 ee 73 3e 6c 22 09 3e
       0.071067035 0.039835952 0.23821265 0.13392037
0002f0 40 a4 72 bd bb e9 ef bb ba 9e 1a 3d 4f 69 46 3e
       -0.059238672 -0.007321564 0.03774903 0.1937611
000300 19 dd 82 bd f0 16 62 3e f8 e7 30 3e a1 02 d3 bb
       -0.06389827 0.22079062 0.17275989 -0.0064395224
000310 5d bb d7 bd 38 2f b9 3d 3b 0f a9 bd 8d 17 8d bc
       -0.105337836 0.090422094 -0.08254858 -0.017223144
000320 52 8f c3 bc ed 4b d8 3b 44 89 39 be 49 2e d8 3d
       -0.023872051 0.006600848 -0.18118769 0.10555703
000330 5b e4 bb 3d a5 a8 13 3e cc 83 82 bc 56 1e 4b 3d
       0.09174415 0.14419802 -0.015931986 0.049589477
000340 36 12 4b bd fa 77 25 3e 2d 48 99 bd 05 f5 88 3d
       -0.049577914 0.16159049 -0.074844696 0.06687359
000350 25 64 08 bd f5 eb 6b 3d 18 ff e1 3c ec c3 91 bd
       -0.03329863 0.057598073 0.027587458 -0.07117447
000360 f4 d3 ac 3d a3 23 2a 3e b4 8b ac 3c 20 62 8b bd
       0.08438864 0.16615157 0.02106271 -0.06805825
000370 a9 be e6 3b 2a 95 57 bd c1 ec f9 3d f3 bd 17 3e
       0.0070417714 -0.05263249 0.1220336 0.14818554
000380 34 e7 a8 bd 2b a4 14 be 42 fd 33 3e 1f 07 6b 3d
       -0.082472235 -0.1451575 0.17577079 0.057379838
000390 b4 2d 05 3b e7 a2 d9 bd 8f 84 ab bd d4 ca ec bc
       0.002032143 -0.10626774 -0.08374893 -0.02890531
0003a0 38 d8 e5 bc 09 dc 34 3e 94 f3 25 3e b5 1e 18 3d
       -0.028057203 0.17662062 0.16206199 0.03713866
0003b0 58 2e 7f 3d bf 14 c8 bc 23 ca 84 bd 7c 9d d9 3c
       0.062300056 -0.024423955 -0.06483867 0.026564352
0003c0 2f da 3e 3d 07 ab a3 bd 9c 40 3f 3d b7 46 6a 3e
       0.046594795 -0.07991605 0.046692476 0.22878538
0003d0 65 d9 86 3c 58 c5 00 be 6f 7f e1 bd 2b fb 21 3e
       0.016461084 -0.1257528 -0.11010634 0.15818469
0003e0 fd 23 10 bd 2a e2 64 3e 99 a0 d2 bd 4e e8 5f 3e
       -0.03519057 0.223519 -0.10284538 0.21865961
0003f0 85 3a bb bb 91 84 28 3c 4d d8 14 be 99 4e 74 bd
       -0.005713763 0.010285513 -0.14535637 -0.05964527

arith.constant2 f4 [3]
000000 fa 9d 12 3d ea c8 29 bc 39 9f 12 bd
       0.03579519 -0.010362843 -0.035796378

sequential_1/dense_1_2/BiasAdd/ReadVariableOp f4 [64]
000000 8e ef d8 3c 85 79 22 3d f6 67 35 3d 4a 14 48 3d
       0.026481416 0.03966667 0.044288598 0.048847474
000010 e4 26 9c 3c 80 3d 0b 3d 8e 98 1f 3d 81 8b 26 3d
       0.019061513 0.033994198 0.038963847 0.040660385
000020 b4 4e bb bc 2d 3a 8d 3c 2d d8 43 3d 72 3f 42 3d
       -0.022864677 0.017239654 0.047813583 0.047423787
000030 f3 c4 23 3d c3 fe 8d bc 29 ef 46 3d 23 cc 3c 3d
       0.039982747 -0.017333394 0.048567925 0.046093117
000040 c0 3f ac bc 93 cb 8b bc 28 86 6f 3d 8e c3 bf bb
       -0.021026492 -0.017064845 0.05847755 -0.0058521694
000050 8b d3 2e 3d 38 4d 24 3d dc 00 8f bc f9 09 18 3d
       0.04268221 0.040112704 -0.017456464 0.037118886
000060 d2 fc dd 3c 6f fe 13 3d ce ae 58 3d 05 5c 8b bb
       0.027098093 0.03613132 0.05290108 -0.004252913
000070 a9 42 bb 3b 14 7a 3f 3d 00 9f 89 bc ce 26 95 bc
       0.0057147336 0.046747282 -0.01679945 -0.01820698
000080 69 de 02 3d 73 97 1c 3d 50 09 6b bc 6b 1b 31 3d
       0.031950388 0.03823037 -0.014345482 0.04323904
000090 21 06 0e 3d a1 b7 d4 bb 7f 78 48 bb ab 48 2c 3d
       0.034673814 -0.006491617 -0.00305894 0.04206149
0000a0 24 5b aa bc ca 56 9d bc 5a b1 14 3d 4e d4 df 3b
       -0.020795412 -0.019206423 0.036301948 0.0068307286
0000b0 0d 27 56 3d a8 bf 02 3d 96 eb 51 3d e8 51 8a bc
       0.052283335 0.03192106 0.051250063 -0.016884759
0000c0 ef 57 1d 3d d6 9a 0b 3d a3 2e cc 3c bc ec 32 3d
       0.038413938 0.03408321 0.024924582 0.0436828
0000d0 d0 30 e7 bc d4 ab cf bc bc 48 7b 3d 7c 88 46 3d
       -0.028221518 -0.025350489 0.06134866 0.048470005
0000e0 69 2c d7 3b 40 42 70 3d d8 47 6a bc 3a 49 bf bc
       0.0065665734 0.05865693 -0.014299355 -0.023350347
0000f0 91 c5 4f 3d 49 41 bd bc 04 c8 53 3d 66 94 9a bc
       0.050725523 -0.02310242 0.05170442 -0.01886959

sequential_1/dense_1/BiasAdd/ReadVariableOp f4 [128]
000000 d8 09 3c 3d 40 1d b7 bc 13 99 43 bc 53 48 32 3d
       0.045907825 -0.022352815 -0.011938351 0.043526005
000010 8b 57 5c 3d b9 a8 d9 3c 30 d1 6b 3d 27 ec 7f 3d
       0.053794425 0.026569711 0.057572544 0.06248107
000020 c2 1d c5 3c 31 0c 82 bc de ed 1d 3d 0c a9 50 3d
       0.024062041 -0.015874954 0.038556926 0.050942466
000030 68 32 f1 3c 81 82 13 3d 23 4a 7f 3d 51 7a 27 3d
       0.02944298 0.03601313 0.06232656 0.040888134
000040 4c ec 9e 3c 6a 79 81 3d 6d 98 85 3d 09 60 b5 39
       0.019399785 0.06321986 0.065232135 0.00034594562
000050 cb 06 59 3d 5e 79 31 3d bb 0c 11 bd 21 e2 d3 3b
       0.052984994 0.043328635 -0.03541253 0.0064661657
000060 70 b6 2b bc 59 61 42 3d fa 2a 25 bc 3b 37 84 3d
       -0.010480508 0.04745612 -0.010081047 0.06455847
000070 cd df 93 3d be 44 4e 3d 87 50 8b bb f3 5e 73 3d
       0.07220421 0.050358526 -0.004251543 0.059416723
000080 d6 a6 1a 3d 15 d2 67 3d c8 b5 3c 3d ac 3c 82 3c
       0.037756763 0.056596834 0.046071798 0.015898071
000090 80 2e 59 3d be 55 53 bc 8f 11 76 3c 80 80 12 3d
       0.05302286 -0.0128988605 0.015018835 0.03576708
0000a0 3d 54 70 3d ee fe 80 3d 35 89 e3 3c 4c 72 99 3d
       0.058674086 0.06298624 0.027775386 0.074925035
0000b0 b4 2d 41 3d 0e 53 dd 3b f1 85 4b bc c8 90 58 3d
       0.047162727 0.0067542857 -0.012422071 0.05287245
0000c0 d6 26 42 3d af e7 78 3d 41 60 36 3d aa 6b 9f bc
       0.047400318 0.060767826 0.04452539 -0.019460518
0000d0 c6 f2 dc 3c ff 54 f2 3c ce 02 8a bc d5 c1 42 3d
       0.026971232 0.029581545 -0.01684704 0.047548134
0000e0 db f7 42 3d 89 c8 53 bc a9 61 59 3d ba d4 8b 3d
       0.047599655 -0.012926229 0.05307165 0.06827684
0000f0 47 83 48 bc f8 dd ec bb 79 9d 19 3d 62 30 5b 3d
       -0.01223833 -0.007228609 0.037503693 0.05351294
000100 7a 8a 19 3d 58 e8 0f 3d 2c 7a 5f 3d 6d ea 04 bd
       0.037485577 0.03513369 0.05455987 -0.03245013
000110 d0 7b 89 bc 77 59 6d 3d 8e e1 55 3b 78 0c 71 3d
       -0.016782671 0.05794665 0.0032635662 0.05884978
000120 d2 aa ae bb 8c 7d 16 3d 96 87 8a 3d ef 44 46 3d
       -0.005330422 0.036740825 0.06764142 0.048405584
000130 6f af 2a 3d 51 25 7b 3d 14 97 0b 3d b0 55 df 3b
       0.041671213 0.061314885 0.034079626 0.0068156347
000140 f2 9d ae bc 63 63 15 3d 47 6e ce 3c 93 71 04 3d
       -0.021315549 0.036471736 0.025199069 0.032334875
000150 52 f6 81 3d 5b 17 5a 3d 2a 2c 37 3d 42 60 a3 3c
       0.0634581 0.05324493 0.044719853 0.01994336
000160 fb 19 27 bd 72 97 74 3d 0e 54 43 3d 6d 65 6f 3d
       -0.04079626 0.059714742 0.047687583 0.058446337
000170 28 66 59 3d e0 9b 8d 3d ee 0b 5f 3d 09 65 88 3d
       0.05307594 0.069144964 0.054454736 0.06659896
000180 c3 61 70 3d f3 2b 21 3d b3 fd 6e 3d bf cc 69 3c
       0.058686983 0.039348554 0.058347415 0.014270007
000190 f8 60 4f 3d 36 6d 00 3d ce 4b 40 3b 70 2f 04 3d
       0.050629586 0.03135415 0.0029342058 0.032271802
0001a0 20 c7 26 3d c4 c3 94 3d 97 99 7e 3d de 30 84 3c
       0.040717244 0.07263902 0.062158193 0.016136583
0001b0 3c c9 1f 3d 84 37 92 38 08 42 aa 3c 1b 32 56 3c
       0.03901027 6.972163e-05 0.02078344 0.0130734695
0001c0 6c c1 0b 3d 68 64 9f 3b b2 82 68 bb d2 96 49 3d
       0.03412001 0.0048642643 -0.003547829 0.0492161
0001d0 e3 13 a2 3c e8 db a1 3c 02 89 c2 3c 74 9c 6f 3d
       0.019784873 0.01975818 0.023746971 0.058498815
0001e0 ec 25 b0 bc 47 5f 52 3d df 0c 3e bb fa 0e 3f 3d
       -0.021502458 0.051360395 -0.002899937 0.046645142
0001f0 b1 46 80 3d 75 5f 89 3d 7c b4 15 3d a3 4b f3 3c
       0.06263483 0.0670766 0.036549076 0.029699152

sequential_1/dense_1/MatMul f4 [128, 634]
000000 97 43 92 3d 2f 3e 3f 3d 5c 4f 19 3c 1f 71 32 bd
       0.07141798 0.046690162 0.0093573 -0.043564912
000010 c3 cf 49 bd 11 3f 16 3b 7a cc 66 bd e0 4c ec 3c
       -0.049270403 0.0022925774 -0.056347348 0.02884525
000020 72 b3 2c 3d b1 41 03 3d fb 05 f9 3d 72 22 06 bd
       0.04216332 0.03204507 0.12159344 -0.032747693
000030 61 db 84 bc e5 91 f6 bc c3 5a 54 3d 2c d2 a2 3d
       -0.01621789 -0.030098865 0.05184437 0.07950243
000040 73 ee 9e 3c f9 c8 2a bc 86 73 99 3c 0f 33 cf bc
       0.01940081 -0.010423892 0.018731844 -0.025292901
000050 86 f2 5a 3d f3 30 70 bd 28 e6 56 bc 39 c9 bf bd
       0.053453945 -0.05864043 -0.013116397 -0.09364552
000060 31 64 1d 3d f6 8e 07 3d d8 65 19 3d 1d 6c 8e 3d
       0.038425628 0.033095323 0.03745064 0.06954215
000070 35 fc 83 3c 5f 2d 82 bd 19 c5 38 3d 4e bf 6e 3d
       0.016111473 -0.0635631 0.045109842 0.05828791
000080 44 9e 8d 3c b6 27 b6 3c 1f d5 91 3c cb 70 13 bd
       0.017287381 0.022235733 0.01780182 -0.03599624
000090 1e 69 64 bd 91 1a 84 3c 91 a0 0b 3c fd af c7 3d
       -0.05576431 0.01612595 0.008522169 0.09750364
0000a0 61 de 9d 3d 52 d6 eb bc bf 98 b4 3d 20 b3 96 3c
       0.07708431 -0.02878872 0.088181965 0.01839596
0000b0 aa 48 63 3d 5c d7 49 bc a3 07 d6 3d 67 27 b3 3d
       0.05548922 -0.012319412 0.10450675 0.0874775
0000c0 2d b1 4a 3d df 76 21 3c 87 d8 c1 ba 07 be 8d 3d
       0.049485374 0.009855001 -0.0014789262 0.069210105
0000d0 96 3a 6a 3c 76 92 c2 bc 48 3c 20 bc 61 40 7f 3d
       0.014296195 -0.023751479 -0.009779997 0.062317256
0000e0 14 03 04 3d fe 76 8b 3d 07 26 6b bc be 0b 38 3d
       0.032229498 0.06809805 -0.014352328 0.044933073
0000f0 31 74 ee bb c9 d9 5f bd 5f f0 49 3d fc 5e e0 bc
       -0.0072770347 -0.054651055 0.0493015 -0.027389042
000100 15 b4 8a 3d a8 b8 16 3d fe 22 ba 3a 07 40 d1 3d
       0.06772629 0.036797196 0.0014201102 0.1021729
000110 2a 20 dc 3c 02 15 c3 3c 40 23 cd 3d e3 22 74 bd
       0.026870806 0.023813728 0.10016489 -0.059603583
000120 82 43 74 3d 1f 40 0b 3d 8b 21 35 bd 6d 45 60 bc
       0.059634693 0.033996698 -0.044221442 -0.013688427
000130 aa 9c c8 b8 c9 34 2b 3d 79 bd 72 3c e5 be bd bd
       -9.565924e-05 0.041798387 0.014815682 -0.09264926
000140 41 01 0e bd 39 05 17 3d 21 04 c3 3d 57 de 6f bd
       -0.034669165 0.036870215 0.09522272 -0.05856165
000150 c9 dd a6 3d 09 3a 11 bd 94 84 4b 3d 15 3a 81 3d
       0.08147771 -0.035455737 0.049686983 0.063099064
000160 90 e9 d7 bd 47 31 6c bb e9 f9 bc 3c 45 81 a8 3d
       -0.105425954 -0.0036040114 0.023068385 0.08227781
000170 74 62 12 bd f4 a2 b4 bd 30 18 b0 3c ce c9 26 3c
       -0.035738423 -0.08820143 0.021495908 0.01017995
000180 bc 5b 8f bd 16 3b 11 3d 70 09 8f 3d 63 cc f2 bc
       -0.06999919 0.03545674 0.06984222 -0.029638475
000190 e3 1f 7f 3c bd 72 ea bc a2 80 96 bd d4 7f 22 3d
       0.015571567 -0.028619165 -0.073487535 0.039672688
0001a0 52 b9 22 bd 38 20 ac 3c d5 44 7f bd e7 1b 12 bd
       -0.039727516 0.021011457 -0.062321503 -0.03567114
0001b0 e4 d5 c5 bd 17 c0 7f bd f5 f5 e4 bc a0 1a a1 bd
       -0.09659937 -0.06243905 -0.027949313 -0.078664064
0001c0 2b aa 63 bd 7b 17 d3 bd 29 5c c1 3c 74 42 1f bd
       -0.055582207 -0.10307213 0.023603516 -0.038881734
0001d0 34 99 7a bd 9b 13 6a 3d 7d 86 98 3d 36 fb 5c 3d
       -0.061181262 0.057147603 0.074475266 0.05395051
0001e0 bf ab 28 bd 2f 4d 30 3b b4 b7 8e bd 75 00 43 bc
       -0.041179415 0.0026901474 -0.06968632 -0.011901964
0001f0 42 61 8a 3d aa cf 6e bd 64 f8 c6 3d 90 7e 0b 3c
       0.06756832 -0.058303513 0.097153455 0.008514062
000200 e6 f8 7e bd 74 f7 55 bc e6 4f 8a 3c 4f f6 8e bd
       -0.062249087 -0.013059486 0.016883802 -0.069805734
000210 5a 63 df 3d cf 00 8a bd 23 e5 48 3d 39 85 b2 3d
       0.10907622 -0.067384355 0.049046647 0.087168165
000220 0c a7 87 3d cc 01 75 3d bb eb 7c bd 39 d2 c2 3c
       0.066236585 0.059816167 -0.061748248 0.023781883
000230 ce c5 c1 3d 10 bb 81 3d c5 4e 39 3c 21 25 b1 3d
       0.094615564 0.063345075 0.011310284 0.0864966
000240 83 37 87 3c c3 85 d9 ba d0 90 92 bb 1b dc 67 bd
       0.016505962 -0.001659565 -0.0044728294 -0.056606393
000250 5b ac 4b bd c6 c0 ae bc dd 50 43 3d d9 4d 02 bd
       -0.049724918 -0.021332156 0.04768454 -0.031812523
000260 78 f7 7c 3d 9d 55 87 bc 72 f3 84 bd d7 dc d6 3d
       0.061759442 -0.016520316 -0.06491746 0.104913406
000270 d2 e6 c1 3c ab 22 b5 bc 66 c4 cc 3d 3d 59 ed 3c
       0.023669634 -0.022111258 0.099983975 0.028973216
000280 0c 6f bd bd 59 ab 48 bd 56 8c a2 3d c0 5a 4b bd
       -0.09249696 -0.048991535 0.07936923 -0.049647093
000290 40 25 8f 3d c5 57 29 3d ef 1e d7 bd e8 74 26 3c
       0.06989527 0.04134347 -0.10503947 0.010159709
0002a0 4a 50 94 3d 43 f0 89 3d 65 41 8b 3c 1c 2d d1 3d
       0.072418764 0.067352794 0.016998956 0.10213682
0002b0 13 06 83 3c bb 50 c5 bd 45 de cb 3d 50 a9 e9 3b
       0.015994107 -0.09634539 0.09954504 0.0071307793
0002c0 0a 85 47 bd e9 69 43 3d c1 19 0f 3d 6a b5 8a bd
       -0.04871086 0.047708426 0.03493667 -0.06772883
0002d0 a4 53 a4 bd 52 cf 8c 3d 50 86 6d bd c8 d2 06 bd
       -0.08023766 0.06875481 -0.05798942 -0.03291586
0002e0 8b af a7 bd 97 5c 7d bd 58 af 70 3d 28 95 8f bd
       -0.08187779 -0.06185588 0.05876097 -0.07010871
0002f0 6a ae 6c 3d e8 2a 2f bc 04 d1 c2 3c 39 63 8a bb
       0.05778352 -0.010691382 0.023781307 -0.004223254
000300 07 ef fd 3c 17 52 1d bd 86 1b 78 3d d4 e8 7b bd
       0.030997766 -0.038408365 0.060573123 -0.06150134
000310 31 21 f3 3b 42 0c 82 3d 7a 18 15 3d b7 c9 5f 3d
       0.007419728 0.06349994 0.036400296 0.05463573
000320 df 29 b0 bd 9b 07 49 3d dd f5 0c 3d 7d d9 b1 bd
       -0.08601736 0.04907952 0.03441416 -0.08684061
000330 66 f4 5a 3c 9e 63 b7 3d 1e d6 c9 bb d1 3b 81 3d
       0.013363933 0.08954547 -0.006159558 0.06310237
000340 88 c7 78 bd bd ab eb bc 60 94 2f 3d 09 f9 a6 3c
       -0.060737163 -0.028768415 0.04286611 0.020382421
000350 6d a1 05 3d 70 e9 48 bd 6b d9 8a 3d 65 80 cb 3d
       0.03262465 -0.04905075 0.067797504 0.09936599
000360 fa 9e 8c 3d 07 e4 30 3d 4c ec 56 bd 05 82 bb 3d
       0.0686626 0.043186214 -0.052471444 0.09155659
000370 b6 38 85 3d 09 e9 a6 bd af 6e 39 3b c8 de f3 bc
       0.065049574 -0.08149917 0.0028294732 -0.029769316
000380 2b 03 7a 3d c0 5e a1 bc 08 93 d8 3d f4 42 00 3d
       0.061038177 -0.0196985 0.10574919 0.03131385
000390 c1 5d 82 3d be 6f a5 3d 20 64 34 3d b0 6c 24 bd
       0.063655384 0.08077954 0.0440408 -0.040142715
0003a0 c6 05 c5 3c 6d 23 04 3d 63 cc cb 3d 2f 80 d3 3d
       0.024050605 0.032260347 0.09951093 0.103271835
0003b0 ba 96 b1 bc 8b 9f 48 bd df 5a 5d bd 59 f0 b7 3d
       -0.021678317 -0.048980277 -0.05404174 0.089813896
0003c0 46 f9 b6 3d d9 7b 87 3d 6b 11 55 bd 67 5b ba 3d
       0.08934264 0.06615419 -0.052018564 0.09099465
0003d0 24 d4 a9 bd 00 ec c0 3c 12 32 40 bd 88 55 80 b9
       -0.08292416 0.023550034 -0.04692275 -0.00024477788
0003e0 d7 8c c1 3d 7d 8b a6 bc 85 59 2d bd ac ab 20 bd
       0.09450691 -0.020330185 -0.0423217 -0.03922622
0003f0 7b 8f d4 bd f9 0b aa bc 8c 74 c0 bc 07 73 9c bc
       -0.10378929 -0.020757662 -0.023493074 -0.019097818
